all_shared_weights.pt (torch, 5847 bytes, 11 tensors)

shared_policy/fc_1/kernel f4 [8, 8]
00000000: f601 8fbf 7e17 3a3f c05f b63f debc 913f
00000010: 0b7b 6c3f 0fe5 ce3e 8f14 bd3f 66c5 9bbf
00000020: 18ca 88bd b71e aebe 5ca5 d3be b930 9bbe
00000030: 75de 39bf 71ab bebe 35d5 45bf fe08 3d3f
00000040: d4a1 d53e 5b2a 74bf 913e 01bf ffd0 8ebd
00000050: de7d 35bf 308a 41bf c723 0f3f e618 cfbd
00000060: c741 cdbf 8aaa dbbf f42f 94bf 6bb7 e2be
00000070: 00b1 dfbf e27d 06c0 59c5 9dbf 2fa1 8c3f
00000080: 2c10 973e 3f10 93bf af9c b7be b93f 9abe
00000090: d1fa 03bf 835b 2fbf e886 40bf 5b4b 2b3f
000000a0: 19a5 3c3f b01d ed3e e7fa cd3d 352a c13d
000000b0: 73b6 3abf 865f eebe 6fd9 833e 5e8f 75be
000000c0: 5f41 b7be 437d cf3e 5ff6 76be 78c3 88be
000000d0: 7eeb a73e 1dcc 02be bf29 a7bd a594 cb3d
000000e0: 6859 363e 8bf7 b83f 77ba 583e ccad 9d3e
000000f0: 5562 283f 8772 993f fee6 4d3e 61fb 56be
-1.1172473 0.72692096 1.424797 1.1385763 0.9237525 0.40409133 1.4771899 -1.2169616
-0.06679171 -0.3400781 -0.41337097 -0.3031061 -0.7260507 -0.37240174 -0.77278453 0.73841846
0.41725028 -0.9537713 -0.50486094 -0.069734566 -0.70895183 -0.7560148 0.55913967 -0.10112171
-1.6035699 -1.7161419 -1.1577134 -0.44280562 -1.7475891 -2.1014333 -1.2325851 1.0986689
0.29504526 -1.1489333 -0.35861728 -0.30126742 -0.5155459 -0.6849901 -0.7520585 0.6691186
0.7368942 0.46311712 0.100576214 0.094318785 -0.72934645 -0.46557254 0.25751826 -0.23980471
-0.35792062 0.40525255 -0.2411742 -0.2671163 0.32796854 -0.12773176 -0.08162259 0.09940461
0.17807543 1.4450544 0.2116488 0.3079666 0.6577504 1.1988076 0.20107648 -0.20994331

shared_policy/fc_1/bias f4 [8]
00000000: 6939 8f3e 9a8f b7bc 33f6 63be 6fb5 07bf
00000010: f455 9fbe c854 893d 3852 acbe 6ff7 443e
0.27973488 -0.022407342 -0.22261886 -0.5301122 -0.31120265 0.06705624 -0.33656478 0.19235013

shared_policy/fc_value_1/kernel f4 [8, 8]
00000000: 412d 903f 1f60 5240 353a a73f 846b 643f
00000010: f16c 783f 1c3c a23e 08e7 08c0 7375 383e
00000020: a608 8cbf 0ab0 72be 8926 b93c e9d8 10be
00000030: a324 2d3e 60a0 44bf a099 edc0 f716 86bc
00000040: 0749 9e3d 50b0 c8bf 4eb4 083d 7f70 e7be
00000050: dddf 1abc a199 15bf 68ed 9dc1 c369 77bf
00000060: c8ae b73e 813e 383f cfd1 2abf de32 a7bf
00000070: b84f c8bf 04fa cdbf 28c5 e9c0 93d4 c9bf
00000080: 1c39 8c40 9ee3 aa3f c1e9 6a3e 9426 75be
00000090: 7489 21be a6d3 9ebf 7566 92c0 d913 1e3f
000000a0: faf8 5ebf e3ba 0cbe a74f 763f 86d4 9cbf
000000b0: 74f2 6e3e 6874 9740 8966 083f 8198 bebe
000000c0: fd95 83bf 5577 c4bf be8a a9be c7d2 4040
000000d0: fa08 33be 6c6a 64bf 0b8c 6040 1471 923d
000000e0: ebfc 62bd c089 e6be 78be 47bf f2e3 b8bf
000000f0: 2275 8fbd aa52 dc3e 7a54 213f 7d35 1a3f
1.126381 3.2871168 1.3064638 0.89226556 0.9704123 0.31686485 -2.139101 0.18013553
-1.0940139 -0.23699966 0.022601383 -0.14145245 0.16908507 -0.7680721 -7.425003 -0.016368372
0.077287726 -1.5678806 0.033375077 -0.45203015 -0.009452787 -0.58437544 -19.740921 -0.96645755
0.35875535 0.71970373 -0.6672639 -1.3062398 -1.5649328 -1.6091924 -7.305317 -1.5767998
4.3819714 1.3350713 0.22940733 -0.23940498 -0.1577509 -1.240834 -4.575007 0.61749035
-0.8709866 -0.13743167 0.9621529 -1.2252357 0.23334676 4.7329597 0.53281456 -0.37225726
-1.0280148 -1.5348917 -0.33113664 3.0128648 -0.17483893 -0.89224887 3.5085475 0.07150474
-0.055416983 -0.4502697 -0.7802501 -1.4444563 -0.07004763 0.43031818 0.63019526 0.60237867

shared_policy/fc_value_1/bias f4 [8]
00000000: bdd6 e4be 8384 313e a8e9 11bf 54fc 1540
00000010: a6e3 6a3f ae08 863f 7bba 673f 0264 a03f
-0.44695082 0.17335705 -0.56997156 2.343526 0.91753614 1.0471399 0.9051892 1.253052

shared_policy/fc_2/kernel f4 [8, 8]
00000000: 77e9 753f 822f 7abf ad4f 193f fb9b 3ebf
00000010: 0d41 afbe 1e7f 92bf b44e 26bf 9ac9 ba3e
00000020: a5ba 88bf ec84 793f 5c22 99bf 30cc c93f
00000030: c184 993f 5ebb 1c3f 7fc2 ad3f 4198 2cbf
00000040: c713 4fbf db08 b03e 21e3 0dbe dc13 e5bd
00000050: 3e3a b73e 73c1 773f 906e c43e 2e56 4fbf
00000060: f6bf 86bf 3ddd 7b3f f6b0 72be 37bc be3e
00000070: 54bf a93e d9bd 283e c094 3a3e 79ef 07bf
00000080: 08aa 44bf 3373 003e 7634 02bf d3e5 c13e
00000090: 52c2 ef3e 3836 c73e 0e6c 653e 4b77 61be
000000a0: 1938 9c3e 4754 463e 4a19 4abf 17f4 043f
000000b0: bece 463f 590b 50bd 7093 693f 0ddb d6be
000000c0: af28 f4bf b11b 0b40 cb87 eabf 5ba2 de3f
000000d0: db2b eb3f 6f92 b93f 4eeb 993f 8da7 cbbf
000000e0: 14b2 793f 4e2d 8bbf f6c4 a53f cde1 8dbf
000000f0: 490b 8ebf 693e b7bf 1dc5 5abf 38e4 1d3f
0.96059364 -0.9772874 0.598872 -0.7445676 -0.34229317 -1.1445043 -0.6496384 0.36481935
-1.0681959 0.9746845 -1.1963611 1.5765438 1.1993638 0.612234 1.357498 -0.6741982
-0.8088955 0.34381756 -0.13856174 -0.111854285 0.35786623 0.96779555 0.38365602 -0.80990875
-1.0527332 0.9838446 -0.23700318 0.37252972 0.33153784 0.16478671 0.18220806 -0.5309978
-0.7682195 0.12543945 -0.508613 0.37870654 0.46827942 0.38908553 0.22404501 -0.22018163
0.3051155 0.19368087 -0.7894484 0.5193495 0.77659214 -0.050792072 0.91240597 -0.41963997
-1.9074916 2.1735651 -1.8322691 1.7393297 1.8372759 1.4497813 1.2024934 -1.5910507
0.9753735 -1.0873201 1.2950733 -1.1084534 -1.1097194 -1.4315921 -0.8545702 0.6167636

shared_policy/fc_2/bias f4 [8]
00000000: e2ec f03e f220 f3be c9d7 7a3d 42a0 fcbd
00000010: bb93 5abd c91f 09bf a4c3 a4bd e963 6f3e
0.47055727 -0.47486073 0.061240945 -0.12335254 -0.053363543 -0.53564125 -0.08045128 0.23377956

shared_policy/fc_value_2/kernel f4 [8, 8]
00000000: 2768 9d40 6e09 d6be 9314 0dc1 2de1 4c3e
00000010: bec2 2541 abea b240 06d9 00c0 40fb 0f41
00000020: f6b5 3240 ddf8 6f3f 9cbf a13f a8d8 35bf
00000030: 94c5 a6c0 4135 99bf c4c4 9ec0 dc56 8ac0
00000040: 8eaa 253f eee2 2fc1 c2a2 d4be 39c4 00c0
00000050: 698b a7c0 6b8d ae40 6c4e 05c1 336d 8fc0
00000060: dcd7 d2bd db96 34c0 c962 16bf 626b 0d41
00000070: 0b85 753f 7839 79c0 5916 6b3e 78a6 8340
00000080: cf73 c0c0 90ac bd40 9d4d 9d41 cfb8 7dc0
00000090: dba3 34c1 c5d5 34c0 2146 d640 1011 99c1
000000a0: 6b1d 96be 25e4 e93f 4aa4 08c0 e119 103f
000000b0: ad76 4640 7b26 98c0 3f22 f2c0 ed62 9b40
000000c0: 1eb0 cd40 0b9f 26c0 4a1a 73bf 1c1e 4c40
000000d0: 4ec4 0f40 61da 43c0 e54a 23c0 eb71 1240
000000e0: b94c 92c0 de19 8040 510f 8441 ce06 1ac0
000000f0: 8899 21c1 3174 cfc0 305a fa40 4650 e0c0
4.918964 -0.4180407 -8.817523 0.20007773 10.3600445 5.591146 -2.013246 8.99884
2.792356 0.9373911 1.26366 -0.71033716 -5.2116184 -1.1969377 -4.9615192 -4.323103
0.6471337 -10.992903 -0.41530424 -2.0119765 -5.235768 5.454763 -8.331646 -4.48208
-0.10295078 -2.8217075 -0.58744484 8.8387165 0.9590613 -3.8941326 0.22957744 4.114071
-6.014137 5.9273148 19.662897 -3.9644048 -11.290004 -2.8255475 6.6960607 -19.133331
-0.2931932 1.8272749 -2.1350274 0.5628949 3.1009934 -4.7546973 -7.5666804 4.855826
6.4277487 -2.6034572 -0.9496199 3.1893377 2.2463565 -3.0602038 -2.5514462 2.288203
-4.5718656 4.0031576 16.507479 -2.4066653 -10.099983 -6.4829335 7.823509 -7.009799

shared_policy/fc_value_2/bias f4 [8]
00000000: 0fb2 1f40 1aa6 f63f f725 ac3f c3d7 0a40
00000010: 2a49 eebf 3ffe 10c0 a937 a4bf 7c46 1bc0
2.4952428 1.926944 1.3449086 2.169419 -1.8616078 -2.265518 -1.2829486 -2.426177

shared_policy/fc_out/kernel f4 [8, 2]
00000000: dcee 5bc0 7fd5 5b40 b9f6 2640 6524 27c0
00000010: c872 17c0 fa24 1740 bcf4 3640 0d98 36c0
00000020: fb42 0640 64a2 06c0 f3ba 1e40 8851 1ec0
00000030: b2db a63f b4d4 a7bf 4380 30c0 7064 3040
-3.4364538 3.4349058 2.6088088 -2.6115963 -2.3663807 2.3616319 2.8586874 -2.8530304
2.0978382 -2.1036615 2.4801605 -2.4737263 1.3035796 -1.3111787 -2.7578285 2.7561302

shared_policy/fc_out/bias f4 [2]
00000000: 31d9 02bf 73d3 023f
-0.5111266 0.51103896

shared_policy/value_out/kernel f4 [8, 1]
00000000: c291 5f43 7687 1f43 39bd 58c2 8c3e 1543
00000010: 0bff 6c42 500e 22c3 2f36 06c3 2112 7842
223.56937 159.52914 -54.184788 149.24432 59.249065 -162.05591 -134.21165 62.017704
