all_weights.pt (torch, 544390 bytes, 11 tensors)

default_policy/fc_1/kernel f4 [4, 256]
00000000: 5c39 bb3d 6737 453d 3195 033f e215 c1bd
00000010: 1ae0 73bd ea19 63bf e191 463f 4e23 88be
00000020: 2e2f eabd 3360 523f 661f d5be 715d 30be
00000030: ea87 c7be 5293 aebe 952a b83e 8a58 f7be
00000040: 60ca 4bbe 782c 333d cd9f efbd 285a 573c
00000050: 748f 9fbe bdc1 08bf c9f2 013f 3b9d 51bf
00000060: 5516 553f cc59 173f 8f5c 36bf ed28 5abf
00000070: 3865 08bf 525b f63e 41ea bebe 81f2 f2be
00000080: e230 693f 4f1e 3fbf 8ef9 2cbf c810 0dbe
00000090: 75c4 8d3e d1c3 19bd e6d9 553f 63f5 293f
000000a0: 84df 82be 91c0 b33c 29bb 3bbf e85e 3e3f
000000b0: ca5f 6c3f 7d85 163f e854 6d3e 1b42 643f
000000c0: f8d4 593e 85f3 f83e 08f7 20bf a949 6a3f
000000d0: 3517 033f 222a 94be fd9e d53e c212 39bf
000000e0: 5569 d7be 52e2 5dbc 1261 d43e 8e65 0cbe
000000f0: 26f6 393f 77fd 003f 241e 1cbe f5e1 d53e
00000100: 9375 7cbe 49a5 b33e 013b c43e ae60 603e
00000110: c51a 5c3f b1f6 0fbf 2174 103e 2a8b cbbd
00000120: ea0e 29bf 1b1d 49bf 2cc3 f3bd 0d0d 8cbe
00000130: 8c18 9abe 2403 74be 3ee6 39bf 617e 1bbc
00000140: 8e2b 1fbd 4e5f 32bf df02 7dbf 16f8 253f
00000150: d6d0 45bf f871 2dbf f849 5ebf 6f48 0d3d
00000160: 2605 513f 2064 5d3f 9a0b 94be db08 3dbf
00000170: f03f 1f3f 2cbb a03d 1822 ad3e 59f1 f7be
00000180: bc08 bf3e 251a 3e3e 42f7 3f3f de87 5c3d
00000190: a584 4bbf 4c9d 52bf 2219 7f3e 50d3 783f
000001a0: 97fa b6be 4ba5 89be 7591 01bf 3b1f aebe
000001b0: b1f5 353f ef0d 983e b56b 9a3e 8508 39bf
000001c0: 46b2 34be a263 1f3f d03c 55bf a125 403e
000001d0: a446 703e 79ec 00bf cf11 2abf 4006 c63e
000001e0: 2428 f53e c105 833d a677 4ebf 3bae e23e
000001f0: e377 1e3d b776 68be 5d6e 483f 2e13 a13e
00000200: b3e6 4dbe 9992 3a3f 454a 9bbe b371 c1be
00000210: 9826 263e f22c ea3e 2540 143f 4ea9 32bf
00000220: efad e6be 4319 ebbe ea88 643f b9eb 133f
00000230: 4579 063e eec8 3bbe 0892 12bf 1085 8c3e
00000240: df7c 25bf 845d c03e f6c6 f1bd 1861 893d
00000250: 44fd f4be abcb 2fbf 9f48 a9be fd03 143d
00000260: 2991 9f3e 0f79 e8be 4ba2 093e 2556 733f
00000270: c129 36bf 2528 6a3f b5f6 ed3e 935f dd3d
00000280: f2d1 0d3f 1e47 c1be 1502 53be 5551 7b3f
00000290: 3908 4d3d 77bb 3abd 1567 a23d 326f 993e
000002a0: b48e d0be c026 6ebf 567c 923d 6b2f 03bf
000002b0: d64b 3ebf bccf 2e3f 35c5 163f 2956 f3be
000002c0: a4c8 e53d df4b bfbd f39d e8be 8d8f 4a3f
000002d0: fac8 4a3e b4fd 6b3e 16b6 e6be 78bf 593e
000002e0: 221b 41be 490f 5cbe 3a6e 3abe 7b79 5dbf
000002f0: 7e54 04be 792c dcbb a82d e33e 2444 26bf
00000300: e51a 313f 91c2 e63e 6fe3 d4bd d141 083f
00000310: a63b 1a3f 9515 ecbe e47d c2be add9 38bf
00000320: 62c1 a93d d4bc db3d 954e 023f 4fc7 923d
00000330: 16d4 62bd 9310 45be 4ad8 6d3f e1b2 c93e
00000340: 2abc 3a3e 249b ac3e 6a5b 4dbd c9c5 d13e
00000350: eb29 e03e 7221 3ebe 7131 123f e1ff 4abf
00000360: 3f1c ffbb 11c1 233e 5194 1ebe c39a 28bf
00000370: 643d b13e 131e 8a3e b3de 19bf 9dc3 02bf
00000380: 431e 323d d07c 91bd 9b35 14be f8bb 4e3e
00000390: b009 0f3f 30b3 74bf b27f adbd eca4 6bbf
000003a0: baca 27bf 334f 27be 25ee 1fbf 4b9e 41bd
000003b0: ca00 023f 91f0 123f 6752 2dbf 93ca fe3e
000003c0: 5fe0 143f 02d3 50bf 3bef 1e3f 3af2 203f
000003d0: 9918 27bf 051d 43bf ae29 2cbf 5355 95be
000003e0: 0901 413f 7f6a 253e 13d2 443f 0c72 5cbf
000003f0: cf7e 8fbe 2d23 41bc 24fe 19be 5817 0f3f
0.091418 0.04814854 0.51399523 -0.09428002 -0.05953989 -0.88711417 0.77566344 -0.26589435
-0.1143478 0.8217804 -0.41625518 -0.17223145 -0.38970882 -0.3409677 0.35969988 -0.48309737
-0.19901419 0.04374358 -0.117004015 0.0131440535 -0.31164134 -0.5342062 0.50761086 -0.8188054
0.832372 0.59121394 -0.71234983 -0.852187 -0.5327945 0.48116547 -0.37288097 -0.4745064
0.91090214 -0.7465562 -0.6756829 -0.13775933 0.27688947 -0.03754026 0.8353561 0.66390055
-0.25561154 0.021942409 -0.7333246 0.74363565 0.9233366 0.58797437 0.2317692 0.8916337
0.21272647 0.4862329 -0.6287694 0.91518646 0.51207286 -0.28938395 0.4172286 -0.7229425
-0.4207255 -0.0135427285 0.4148031 -0.13710615 0.7264122 0.50386757 -0.15245873 0.41773954
-0.24654226 0.3508704 0.38326266 0.2191188 0.8597835 -0.56235796 0.141068 -0.09938653
-0.6603838 -0.78560036 -0.119024605 -0.27353707 -0.30096853 -0.23829323 -0.72616947 -0.00949058
-0.038859896 -0.69676673 -0.98832506 0.64831674 -0.77271783 -0.6775203 -0.8683162 0.034492906
0.8164848 0.86480904 -0.289151 -0.7384164 0.62206936 0.078482 0.33815074 -0.4842632
0.3731135 0.18564661 0.7498666 0.05384051 -0.79499274 -0.82271266 0.24911931 0.9719744
-0.3573806 -0.2688392 -0.50612575 -0.34008202 0.7107802 0.2969813 0.301603 -0.72278625
-0.17646131 0.622614 -0.8329592 0.18764354 0.23464447 -0.5036083 -0.66433424 0.38676643
0.47882187 0.06397582 -0.8065132 0.44273552 0.03868855 -0.22701536 0.782934 0.31459945
-0.20107536 0.7287994 -0.303301 -0.37782058 0.1622566 0.45737416 0.57910377 -0.6978959
-0.45054576 -0.4591771 0.89271414 0.5778156 0.13132198 -0.18338367 -0.57254076 0.2744527
-0.64643663 0.37571347 -0.11805527 0.06707972 -0.47849476 -0.6867015 -0.33063218 0.036136616
0.31165436 -0.4540486 0.13440816 0.9505332 -0.7115746 0.91467506 0.46477285 0.10809245
0.55398476 -0.3774957 -0.20606263 0.9817098 0.05005667 -0.045588937 0.079298176 0.29967648
-0.40733874 -0.9302788 0.071526214 -0.5124423 -0.74334466 0.6828573 0.58894664 -0.47526672
0.1121991 -0.09340643 -0.45433006 0.7912529 0.19803229 0.23045999 -0.45060796 0.21264446
-0.18858007 -0.21490206 -0.1820611 -0.8651349 -0.12922856 -0.0067191687 0.4437077 -0.64947724
0.6918166 0.45070317 -0.10394942 0.5322543 0.60247266 -0.46110216 -0.37986672 -0.72207147
0.08288838 0.107293755 0.50901157 0.07166921 -0.055378042 -0.19244604 0.92908156 0.39394286
0.18235841 0.33712113 -0.050136007 0.4097121 0.4378198 -0.18567446 0.5710669 -0.7929669
-0.0077853496 0.15991618 -0.15486266 -0.6586115 0.3461715 0.2697607 -0.6010544 -0.5107973
0.04348589 -0.07103884 -0.14473574 0.20188892 0.55874157 -0.9558592 -0.084716216 -0.92048526
-0.6554371 -0.16338806 -0.62472755 -0.0472701 0.50782454 0.57398325 -0.6770386 0.49763927
0.58154863 -0.8157197 0.62083787 0.6286961 -0.6527191 -0.76216155 -0.672511 -0.2916666
0.75392205 0.16153906 0.7688305 -0.8611152 -0.28026435 -0.011788172 -0.15038353 0.55894995

default_policy/fc_value_1/bias f4 [256]
00000000: 1f69 953d 17e1 9c3d 1824 aabd 95cb 913d
00000010: 1bde 9fbd 600c aa3d 44d9 b83d 6ebc 893d
00000020: ed91 ad3d b647 bdbd 1a33 a23d e90f 84ba
00000030: a60b a6bd 6531 8bbd 3052 a9bd d601 ac3d
00000040: 7e4f b5bd 0c20 9d3d 413a 92bd d223 823d
00000050: 0c1f b43d 99dd b3bd 6fde b0bd 7893 b4bd
00000060: 1010 a23d d993 a63d 690f a9bd 626f b33d
00000070: b840 a53d 7055 873d 5d89 b2bd 7a4d ba3d
00000080: b163 8bbd 7365 adbd 0c24 a7bd 3ce1 9937
00000090: 2bc6 b1bd b4fd 89bd 4b22 ae3d 715b ac3d
000000a0: 6399 abbd 8d71 083b c041 923d 7464 9bbd
000000b0: 6acf b33d 24d2 ac3d 32e1 b0bd 2b48 97bd
000000c0: 1c0b b33d 4d25 b4bd 088a abbd 546b a8bd
000000d0: 41cd b73d 52ec 97bd 00bd b13d 1ada b13d
000000e0: 9c2e b8bd 15ef aabd 675f b5bd 8560 bf3d
000000f0: 0544 abbd de1f b53d b3aa a1bd 1ca5 973d
00000100: 5674 a4bd 30a8 a13d ddee 333c bcc2 833d
00000110: f041 99bd 11de a5bd a7d8 b23d f4a4 9bbd
00000120: 18af a2bd c3d8 b0bd 5996 aabd 21b6 83bd
00000130: e3f1 833d ea78 b6bd 25f9 a2bd 8bee b9bd
00000140: 0a8d 91bd 5e18 b33d b8a3 9d3d b0fe aa3d
00000150: 29e7 ac3d 440b acbd 2bbb acbd 66b8 98bd
00000160: 5b33 32bd 56a8 8e3d 7923 ae3d b398 a33d
00000170: 9a7c b53d 480f 1d3d 9f8f bc3d 86cc b33d
00000180: 556a 99bd 8404 a83d 2802 a2bd 3707 b83d
00000190: 5592 7c3d 8d64 bd3d 6a3d acbd 0e0d 85bd
000001a0: a38d a6bd 6218 99bd 322b a73d a81e a9bd
000001b0: 39bc a73d 3418 b2bd c00f a13d 0d88 9fbc
000001c0: bb4d 943d 3488 993d 01d3 b63d cf85 81bd
000001d0: 5dff 9fbd e59d 183d 2d89 b43d 263c b33d
000001e0: 62c9 b2bd f088 96bd 98c4 593d 531d 953d
000001f0: f6d5 ab3d eee5 a83d 34ce 97bd 35ad abbd
00000200: 7045 a43d dac3 b3bd dbe7 b73d 6371 80bd
00000210: b158 b4bd 9aa1 b5bd daa4 babd 9ba2 a93d
00000220: e0fa aa3d 7484 b13d 7f01 b63d 4ea0 aabd
00000230: b43c bb3d 68c7 643d e419 b23d a9fb 9d3d
00000240: 8239 a5bd 0476 b33d 7b27 4b3d c153 903d
00000250: 39fd b13d d301 afbd 8878 adbd 6306 bdbd
00000260: 919f a23d 7976 a0bd 8c78 b7bd 34d0 9c3d
00000270: 6187 753d 2df9 adbd fb36 b73d ed2c 973d
00000280: 2938 953d 4649 b8bd 6236 a63d 9465 b43d
00000290: a69c 933d 02b7 9bbd a37e 8f3d 6155 8a3d
000002a0: f0e4 7d3d b3be 1d3d 63cd ad3d 277f b23d
000002b0: c4ef adbd 04df b43d f92c afbd a4be a83d
000002c0: 5aa3 ae3d da75 ac3d 99d1 b1bd ead4 8cbd
000002d0: fbf8 4abd 0295 acbd 2d36 b03d 9d36 ad3d
000002e0: a9eb 9b3d 8ed1 a13d 1afb a03d 6a55 abbd
000002f0: 2e7e a7bd 183a 9d3d 0e36 b53d 6aa0 a7bd
00000300: f3c7 ae3d 38c3 963d 1936 abbd 03ef b7bd
00000310: 06a2 873d 6e92 ae3d f621 b03d 11cf 8b3d
00000320: aa4b a63d fff4 a03d 043f 9c3d 3787 a03d
00000330: cf85 b33d b9aa acbd 2519 9d3d 619f aabd
00000340: 85c5 a2bd 460b 8bbd ae0a 9dbd 946c ab3d
00000350: 01e8 a0bd a5e0 ad3d 97ca a93d b654 a93d
00000360: 8a3c 9abd 6a48 873d 7253 b13d da59 ae3d
00000370: cbbb 723d 0456 abbd 06dd b5bd 2fe3 a4bd
00000380: 9ce9 12bc e307 aabd 7804 9d3d 798c 88bd
00000390: 92db a13d fd99 913d 638a b43d 95bb aabd
000003a0: c0a6 ab3d e483 b33d 1c58 9e3d 4d3f bbbd
000003b0: 0a38 a4bd 9bd8 2c3c 6539 aa3d 092e babd
000003c0: 55cf a13d f969 8abd cd84 4c3b 75a5 b2bd
000003d0: 00d5 7b3d ad18 a63d b185 a5bd 6ed4 a73d
000003e0: d985 adbd 9bdb aa3d ca45 b33d afaf a53d
000003f0: 48ff b6bd 564f b23d 50d4 af3d c34d abbd
0.07295441 0.0766012 -0.083076656 0.07118908 -0.07806035 0.083031416 0.09025815 0.06725393
0.08475099 -0.092421934 0.07919903 -0.0010075542 -0.081076905 -0.06796531 -0.08267629 0.08398788
-0.088530526 0.07672128 -0.07140017 0.063544884 0.08794984 -0.08782501 -0.08636176 -0.0881719
0.0791322 0.081336685 -0.082548924 0.08761479 0.08068985 0.06608093 -0.08717606 0.09096809
-0.06806124 -0.084666155 -0.08161172 1.8343904e-05 -0.08680376 -0.06737843 0.085026346 0.084158786
-0.083788656 0.0020819635 0.07141447 -0.07587519 0.087797955 0.08438519 -0.086367026 -0.07386812
0.08742353 -0.08796177 -0.08375937 -0.08223596 0.08974696 -0.074181214 0.08678627 0.08684178
-0.08993265 -0.083463825 -0.08856087 0.093445815 -0.08362583 0.08843969 -0.078938864 0.07404539
-0.08030002 0.07893407 0.010982242 0.06433627 -0.0748328 -0.080989964 0.087327294 -0.07599822
-0.07943553 -0.08635094 -0.08329458 -0.06431223 0.064426206 -0.08909781 -0.07957677 -0.090787016
-0.07106979 0.08744882 0.076972425 0.08349359 0.08442528 -0.08400586 -0.08434137 -0.07457046
-0.043506008 0.06965701 0.085028596 0.079881094 0.088616565 0.03834465 0.09207081 0.08779244
-0.07490984 0.08203986 -0.079105675 0.08985751 0.06166299 0.09247694 -0.08410151 -0.064966306
-0.08132484 -0.07475354 0.08162536 -0.082578 0.081901975 -0.08696023 0.07864332 -0.019474054
0.072413884 0.07496682 0.089269646 -0.0632435 -0.078123786 0.037259955 0.08815227 0.08751707
-0.08729817 -0.073503375 0.053166002 0.07280984 0.08390419 0.082469806 -0.07412377 -0.08382646
0.08021057 -0.0877759 0.0897977 -0.06271627 -0.08805979 -0.08868714 -0.09113474 0.08282968
0.08348632 0.086678416 0.08887004 -0.08331357 0.091424376 0.05585423 0.086963445 0.07714016
-0.08067609 0.08762744 0.0495982 0.07047225 0.086908765 -0.0854527 -0.08470255 -0.09229734
0.07940591 -0.07835097 -0.08958539 0.07656899 0.05994356 -0.08494792 0.089460336 0.07381616
0.07286102 -0.08998351 0.081158414 0.08808437 0.07207613 -0.07603265 0.07006576 0.06754566
0.06198591 0.038511943 0.0848644 0.08715659 -0.08492997 0.08831599 -0.085535 0.08239487
0.085272506 0.08420916 -0.08682556 -0.06876548 -0.049553853 -0.084268585 0.08604083 0.08457682
0.07613308 0.079012975 0.07860394 -0.08365901 -0.08178364 0.07677096 0.08848201 -0.081848934
0.08534231 0.07361454 -0.08359928 -0.08981135 0.066227004 0.08524023 0.086002275 0.06826604
0.081199005 0.07859229 0.07629207 0.0783829 0.08765756 -0.08431 0.076708116 -0.0833118
-0.0794783 -0.067892596 -0.076680526 0.08370319 -0.07856751 0.08490113 0.08290594 0.082681105
-0.07531078 0.06605609 0.08658494 0.085132316 0.059261125 -0.083660156 -0.088800475 -0.08051144
-0.00896683 -0.083022855 0.07666868 -0.06667418 0.07903208 0.07109449 0.08815458 -0.0833656
0.083814144 0.087653905 0.07731649 -0.09142933 -0.08018501 0.01054969 0.083117284 -0.09090812
0.079008736 -0.06758494 0.0031207085 -0.08722965 0.06148243 0.08110175 -0.0808214 0.081948146
-0.08472795 0.08342668 0.087535456 0.080901496 -0.0893541 0.087065384 0.08585417 -0.08364441

default_policy/fc_2/bias f4 [256]
00000000: a1e3 043b db24 2ebb 8e75 3dbb 506d 283b
00000010: 24ca b63a fbe3 a1b9 17c0 58ba b5ce 0139
00000020: 1c1b 78ba b0d4 d8b9 742f 593a 09fc 66ba
00000030: f0ca 09bb 722f 08ba c439 b4ba e2eb c8b9
00000040: a7bb e538 bf1a 23ba 2f7c 813a 3c79 f33a
00000050: 4564 08ba 4d37 37b9 46af 18ba 77fb 53ba
00000060: 799a cb3b 6075 b9b8 ade5 f33a dad2 4939
00000070: 0a1e 933a fff7 933b 8c29 be39 d920 b7ba
00000080: 6a15 f1b9 67b0 ccba 84e8 57bb 84b2 fcba
00000090: f222 d7ba 193f d439 39a1 f63a d981 fdba
000000a0: 979b a339 de2d 5cba 749e a8b9 21de 853a
000000b0: d1e3 0939 ade4 3dba dfb2 6c3a 84b8 7839
000000c0: afd4 33b9 36c0 063b 3bec 86b8 2a7f ec3a
000000d0: b199 9a3b 3ca0 a43a 0311 26ba 09db d4b9
000000e0: a61e 5aba e987 18bb e0c5 e739 d8e0 513a
000000f0: b1ef 7aba 9cf2 fb38 395f ce3a 3725 e4ba
00000100: 88d3 4539 e52f 8a3a db73 0dba 5234 4bba
00000110: 6543 233a 43b1 37ba 6c04 5c3a e232 aaba
00000120: 39db 523b e1e4 16b9 ef24 fd3a e3a6 84bb
00000130: e0fa e2b8 979d aeba c4c4 79b9 1168 a7b9
00000140: 9240 e439 85af d2ba 6d3a 79bb bbdb 55bb
00000150: 02a2 1ebb 16f8 e0ba be07 903a a442 a33a
00000160: a96a a939 f2d9 9e3a ca3e 263b c1d2 963a
00000170: bf07 283b 9bb2 e03a 0ed6 0a3b 74a6 4b38
00000180: 34a1 733a 263b 25b9 f103 413a 9593 2a3b
00000190: 72b6 c73a f3b5 bcb9 8410 54ba 584a 6fba
000001a0: 4b88 93ba 80b7 8b39 3c98 0c3b 3fd4 0abb
000001b0: bfc6 83bb 1fa5 90b8 904e 633a 8b4f 01bb
000001c0: 7e32 8d39 f81b 093b 0d5a a1b9 6792 1839
000001d0: 8046 86b8 9ab5 2bbb 165f 103b abc7 c9bb
000001e0: 0e05 b8ba 93b1 3cba 5a76 2fbb 9c55 953a
000001f0: 5f69 1f3a 5854 173a c830 e4ba 8875 1c3b
00000200: ba5d 5d3a b263 a5b9 dd66 47bb 4db0 f4ba
00000210: e377 b1b9 c447 c7ba d39c 4dbb 423a d93a
00000220: 41d2 43bb c6de c1b9 e637 f8ba 8bee ec39
00000230: 72ba 383a 1db3 daba 9b98 063b 08f2 3bbb
00000240: 28de 0a3b 50e9 33ba d863 1abb fd50 cc3a
00000250: 7096 a2ba fb06 bc3a 5940 4e3b a22d d3ba
00000260: e538 6eba c1a3 afba 0dbc bf39 8a81 8e3a
00000270: 016f abba 684f ccba ba6b ff3a 6a59 1dba
00000280: 151b 1d3a 84ed 04bb 1c3c 3bb9 ef06 443b
00000290: 0e67 243b a1d2 a13b 475d 7c3a e3c0 49bb
000002a0: e448 b337 ef19 7a3a d59a 653b 16f8 deb8
000002b0: c13b 983b 29df 393a e675 f739 5849 25bb
000002c0: 9434 6e3a eb62 1d39 69ab 993a a987 a3ba
000002d0: 3c95 f0ba eb51 153b 8ca7 06ba c546 8dba
000002e0: bd81 8638 f736 8bb9 f582 7a3b 4bd7 413b
000002f0: 92c6 f13a e553 293a 4e09 a73a b27a 1dba
00000300: 3d57 413b 6ffd ef3a 1876 0bbb 0703 43bb
00000310: 36db 9d3a d5d7 91bb 9b1b 03ba 9f9a d439
00000320: 4363 cd3a 7ae6 2fbb 0a15 5fbb 12e5 b93a
00000330: c562 81b9 ac47 7838 a256 9cbb 11d7 913a
00000340: 90d1 283b 66a3 f4ba ad39 51bb d476 9239
00000350: c156 8539 52f2 c3ba cf02 b6b9 b7b6 333a
00000360: 98e6 51ba d2e8 22b8 0a32 b5b9 ea34 38bb
00000370: b337 e539 8b10 193b 935b 4f39 a9de 3d3b
00000380: db45 1a3b 6380 ceb9 b9cc bbba b6a0 c239
00000390: e3d8 68ba ca2a 8b3a c5f6 09bb e9dc 393b
000003a0: 3693 0ebb 9896 60b8 e080 5aba 21a1 68bb
000003b0: bf23 e9ba a8c1 193b 9f17 9cba e7de 233b
000003c0: eaa4 44b8 0700 643a f912 21bb 5d6b ba39
000003d0: f575 aa3a 1645 6b3b ce03 3db8 f79a 2dba
000003e0: fd12 893a cd31 fe39 e9f4 feba 95fb b7ba
000003f0: f26d 0839 51cb 933a 1c70 03bb 1831 f5ba
0.002027728 -0.002657226 -0.002890918 0.002569992 0.0013945741 -0.00030878172 -0.000826837 0.00012379403
-0.0009464489 -0.00041357195 0.0008284964 -0.000881136 -0.0021025501 -0.0005195058 -0.0013750126 -0.0003832272
0.00010954524 -0.0006221942 0.0009878929 0.0018575559 -0.00052029296 -0.00017472841 -0.00058244576 -0.00080864824
0.006213483 -8.84335e-05 0.0018607877 0.00019247402 0.0011224162 0.0045156474 0.0003627058 -0.0013971581
-0.00045983057 -0.0015616537 -0.0032944987 -0.0019279276 -0.0016413613 0.00040482802 0.0018816359 -0.0019341066
0.00031205706 -0.0008399169 -0.00032161514 0.0010213294 0.00013150206 -0.0007243853 0.00090293394 0.0002371986
-0.00017150001 0.0020561344 -6.433619e-05 0.0018043269 0.0047180285 0.0012559961 -0.00063349324 -0.00040598985
-0.0008320607 -0.0023274368 0.00044207182 0.00080062216 -0.000957246 0.00012013802 0.0015744931 -0.001740611
0.00018866186 0.0010542838 -0.0005395987 -0.0007751632 0.0006227999 -0.000700731 0.0008392993 -0.0012985135
0.0032174124 -0.00014390379 0.0019313375 -0.0040482148 -0.00010823249 -0.0013322112 -0.00023819791 -0.00031930258
0.00043535657 -0.0016074037 -0.003802921 -0.003263219 -0.002420545 -0.0017163779 0.0010988635 0.0012455774
0.0003231366 0.0012119396 0.0025367015 0.0011506901 0.0025639383 0.0017143072 0.0021184715 4.8553993e-05
0.00092937355 -0.00015757661 0.0007362953 0.0026027907 0.0015236868 -0.00035993717 -0.0008089619 -0.00091282045
-0.0011255828 0.00026648864 0.0021453043 -0.0021183637 -0.004021495 -6.897211e-05 0.00086710695 -0.001973125
0.00026931235 0.0020921212 -0.00030775406 0.00014550389 -6.4027496e-05 -0.0026200772 0.0022029332 -0.0061578355
-0.0014039592 -0.00071980915 -0.0026773424 0.0011393311 0.000608107 0.0005772761 -0.0017409557 0.0023873765
0.00084444473 -0.0003154553 -0.0030426302 -0.0018668264 -0.00033849393 -0.0015203883 -0.0031373992 0.0016573148
-0.002987996 -0.00036977808 -0.0018937557 0.00045191156 0.00070468255 -0.001668546 0.0020537737 -0.0028678197
0.0021189544 -0.00068630744 -0.0023558047 0.0015588101 -0.0012404453 0.0014345342 0.003147146 -0.0016111622
-0.00090874574 -0.0013400243 0.00036570468 0.0010872346 -0.0013079346 -0.001558763 0.0019487061 -0.00060023984
0.000599311 -0.0020283172 -0.00017856102 0.002991136 0.002508584 0.004938439 0.00096269365 -0.0030785135
2.1372405e-05 0.00095406076 0.0035034914 -0.000106319945 0.004645795 0.00070904434 0.00047199352 -0.0025220718
0.0009086814 0.00015009537 0.0011724058 -0.0012476343 -0.0018355022 0.0022784423 -0.0005136661 -0.0010778537
6.4137836e-05 -0.00026553098 0.003822503 0.0029577787 0.0018446019 0.00064593396 0.0012743862 -0.0006007358
0.002950146 0.0018309782 -0.0021280106 -0.0029756443 0.0012043479 -0.004450778 -0.0005001367 0.00040550993
0.0015669841 -0.0026840256 -0.003403964 0.0014182648 -0.00024678386 5.9194557e-05 -0.0047710696 0.0011126717
0.0025759675 -0.0018664419 -0.0031925247 0.00027935824 0.00025432374 -0.0014949536 -0.00034715838 0.0006855535
-0.00080070784 -3.884064e-05 -0.00034560292 -0.002810771 0.00043719783 0.0023355808 0.00019775172 0.0028971827
0.0023540172 -0.00039387037 -0.001432798 0.00037122302 -0.00088824163 0.001061761 -0.0021051627 0.0028360432
-0.0021755225 -5.3546013e-05 -0.0008335244 -0.003549643 -0.0017787142 0.0023461375 -0.0011908895 0.0025004686
-4.688363e-05 0.0008697514 -0.002457796 0.00035556676 0.0013005125 0.0035899333 -4.5064655e-05 -0.0006622518
0.001045793 0.0004848376 -0.0019451651 -0.0014036769 0.00013010929 0.0011275803 -0.0020055836 -0.0018706648

default_policy/fc_value_2/kernel f4 [256, 256]
00000000: 3658 c9bc 3f36 663d 0cd3 8d3d 5510 d6bd
00000010: af53 b9bc e2b2 1dbe 546b c2bd 7c36 82bd
00000020: bc3b 75bd 4d1b 673c f7d4 ea3c ad84 30bc
00000030: a672 c7bc 5599 71bc 4e83 48bd 3d72 9b3d
00000040: 28e1 123d 4a1d 69bb ab75 9c3b 4e42 143d
00000050: cc22 643a 47db 603d c34f a33d 4bfd 0e3d
00000060: 3009 063c 2d52 ccbc fda3 96bd 6155 93bc
00000070: ef04 89bd 3d3e 2abd 4ba0 4f3d 10a5 9bbd
00000080: e8c0 023e 943e 43bc 113f e43d 474c f7bc
00000090: 42b7 473d 051d 8dbd a069 82bb 7e10 6a3d
000000a0: 3470 33bc 3dc4 8dbd de54 54bd cbaf 033d
000000b0: 7aa9 98bc d3f3 86bd 0400 02be 9702 a8bc
000000c0: b7fe 8abc 7543 6b3d 87b8 2e3d 9565 2f3d
000000d0: 2423 b6bc dba3 18bc ce3f 47bd daed 08bc
000000e0: ef07 c33d b5bc 50bc 569a 27bc c7ed 413d
000000f0: 2ec3 94bd 038d 09bd 2d2c 243e 7de9 c03d
00000100: 8e4c a8bd ba3b e23d 53bd 0abd 513b 92bd
00000110: 2986 74bd fe75 d73c 22dd e0bc e0d4 b0bd
00000120: 82e4 77bd f3c3 ea3c 335e 32bd dd88 e2bc
00000130: fd34 bebd cf77 1c3d 62ab cabc 9ba9 af3d
00000140: 1822 f8bb 20c6 d4bd 9260 8dbd f767 e23d
00000150: 9871 84bd 5806 85bc 99e8 cebc 3143 793d
00000160: 5910 1e3e eb23 74bd 3758 debd 0dc0 19bd
00000170: 9378 84bc 6844 403d 4d22 60bc 739f 6cbd
00000180: 8f84 643d fb72 f63c fca1 673d 3928 3abc
00000190: 593f 633d 8a78 5ebc d0d1 cf3d e074 28bd
000001a0: d3ee 3f3c 100c 0dbe 4951 0abc 3252 143d
000001b0: 398b 27bb 7a3b 153d 0cc7 733d 0dff 05bd
000001c0: 49de d23a 9ba5 1bbd 3784 c73c 50e3 cc3d
000001d0: d677 3fbc 6c28 d0bd 5f85 5dbd a0b5 0d3d
000001e0: 028d acbd 8c5a 43bc 960e 213e 1230 663d
000001f0: 55de 2b3c 9af7 dc3a d5d2 063d cfa0 dd3c
00000200: 4485 19bd d784 2bbd d975 bf3c 807c 9d3d
00000210: 9994 e0bc fe71 c1bc 8e48 f5bc 28fe f63d
00000220: 3f10 ce3d ddfe 95bd 2f42 473d 9e13 d0bc
00000230: 01d3 0e3d e852 713d 81d9 c73c d594 b43d
00000240: cecc 01bd 6ff2 b5bb 5856 84bc 4e07 76bd
00000250: ab86 c83c 6d15 33bd 27ca be3d 7233 4c3d
00000260: 908a c4bc 6928 12bd 1267 0abd 5e09 adbc
00000270: e558 b9bd 8a29 99bd 4498 59bc 699c 36bd
00000280: d19c 913b 85be 74bd f385 4ebc 2903 a0bd
00000290: f31f 91bc a433 04bd 3d06 85bc fbdf 323e
000002a0: d527 503c fb97 cf3d 03f1 b33c cbbc 30bd
000002b0: b013 60bd 066a 10bc 1dec b7bc 89ab c2bc
000002c0: 084e f43c 9db4 f5bc 41da a53c 0c0a 8bbd
000002d0: 2a7a 423d bc0e 0b3e 26d5 22be 3488 093e
000002e0: a3d7 9c3d 72a2 5c3d 88c2 06bd 8886 0ebd
000002f0: 4fee a03b 18ae 92bc b009 523c b495 b8bc
00000300: bdc6 eb3d 1014 acbd 8a3b 0fbe 4fdb 17bd
00000310: b645 863c 6c86 b43d b537 cbbc 7a04 9fbd
00000320: ed66 373b ff1b 853d e315 90ba 4c97 b9bc
00000330: 993f f83c 0756 b23d e02e 303d d065 6fbd
00000340: f660 5c3d 6167 bbbd f570 25bc ee6c 283c
00000350: 8d43 a4bd 7543 b2bd 4724 493d bae5 b53c
00000360: d14d 40bd 5dd6 f83c b959 b4bd a55e ef3d
00000370: 2479 a63d f267 3cbd dd83 503c c65f b03c
00000380: 30e8 073c 7b81 a2bc ade9 5dbd 27cc a1bc
00000390: 355b 99bd 802a 863d 1a56 94bb 19b1 bebc
000003a0: d991 23be 197e 783d 6206 c43d 5c54 c03d
000003b0: 6063 173d d02b 22bd 3fcf 67bd 4163 8abc
000003c0: 3159 1cbd a550 033c c026 3ebb c3ec 043d
000003d0: 3ae5 883d 2ea9 03bd b32f debc 5c70 8d3d
000003e0: 7680 8abd edf9 b339 6c68 ac3c 3142 d43d
000003f0: 1cab 973d e9ea 21bc 8c9c 1d3d 1d68 5bbd
-0.024578195 0.056204077 0.069250196 -0.10452334 -0.022622911 -0.1540027 -0.094931275 -0.06358048
-0.05987142 0.01410563 0.028666003 -0.01077382 -0.02434666 -0.01474603 -0.048953347 0.075901486
0.035859257 -0.0035570436 0.0047747693 0.036196046 0.0008702695 0.05489662 0.07974198 0.034909528
0.008180901 -0.024941528 -0.07355497 -0.017985048 -0.06690394 -0.04156326 0.050689977 -0.075998425
0.127689 -0.011916775 0.111448415 -0.030187739 0.048758753 -0.06890301 -0.0039798766 0.057144634
-0.010952044 -0.06922195 -0.05183875 0.03215007 -0.0186355 -0.065894745 -0.12695318 -0.020509047
-0.01696716 0.05743738 0.042656448 0.042821486 -0.022233553 -0.00931641 -0.048644833 -0.0083574895
0.095229976 -0.012740304 -0.010229668 0.047345903 -0.0726379 -0.033581745 0.16032477 0.09419534
-0.08217727 0.11046548 -0.03387196 -0.0714022 -0.059698258 0.02630138 -0.027449194 -0.08634353
-0.060520656 0.028657889 -0.043546867 -0.027653152 -0.092874505 0.038200196 -0.024739925 0.085772716
-0.0075724237 -0.10389352 -0.06903185 0.11054986 -0.06466979 -0.016238376 -0.025257396 0.060855094
0.15435924 -0.059604567 -0.108566694 -0.03753667 -0.016170776 0.046940237 -0.013680053 -0.05776925
0.05579048 0.030084124 0.056550965 -0.011362129 0.055480335 -0.013578543 0.101474404 -0.041127086
0.011714655 -0.13774133 -0.008442231 0.0362112 -0.002556516 0.036433674 0.059515998 -0.03271394
0.0016087975 -0.03799973 0.024355037 0.10004294 -0.011686286 -0.1016396 -0.05408227 0.03459704
-0.084253326 -0.0119234435 0.1572822 0.056198187 0.01049002 0.0016858459 0.03291591 0.027054219
-0.037480608 -0.041874733 0.023371624 0.07689762 -0.027414607 -0.023613926 -0.029941823 0.12060195
0.100616924 -0.07324002 0.048647102 -0.02539998 0.034869198 0.058916956 0.024395706 0.0881745
-0.031689458 -0.005552582 -0.016154453 -0.06006556 0.024478277 -0.043721605 0.09315901 0.04985375
-0.023991853 -0.03568307 -0.0337897 -0.02112263 -0.090501584 -0.07478626 -0.013280932 -0.044582758
0.004443743 -0.059752006 -0.012605178 -0.07813103 -0.01771543 -0.03227581 -0.016238326 0.17468254
0.012704809 0.1013641 0.02196551 -0.043148797 -0.054706275 -0.00881434 -0.022451455 -0.023763435
0.029822364 -0.02999335 0.020245673 -0.06789026 0.047479786 0.1357984 -0.15901622 0.13430864
0.07658317 0.053865857 -0.032900363 -0.034796268 0.004911221 -0.01790528 0.0128196925 -0.022532322
0.11512516 -0.08402264 -0.13987556 -0.037074383 0.016390663 0.088147014 -0.024806837 -0.07764526
0.0027984933 0.064994805 -0.0010992851 -0.022655152 0.030303763 0.08707815 0.043013453 -0.058446705
0.053803407 -0.09150577 -0.010097732 0.010279877 -0.08020697 -0.08704273 0.049106862 0.022204269
-0.04694921 0.030375654 -0.08806176 0.11687974 0.081285745 -0.045997567 0.012726751 0.021530043
0.008295104 -0.019837132 -0.05417793 -0.019750668 -0.074880995 0.06551075 -0.0045268657 -0.023277806
-0.15973605 0.06066713 0.0957153 0.0939109 0.036960006 -0.039592564 -0.05659413 -0.016893031
-0.038170997 0.008014833 -0.0029014796 0.032452356 0.066843465 -0.032143764 -0.027122354 0.069061965
-0.06762783 0.0003432775 0.021045886 0.103641875 0.074056834 -0.009882667 0.038479373 -0.053566087

default_policy/fc_value_1/kernel f4 [4, 256]
00000000: 5624 8cbe 4846 c33e 3f71 1e3f 87c3 5e3d
00000010: 1959 2fbf fa54 763f 2094 4fbe 076b d2be
00000020: a120 653f 35d8 513f 2266 4c3e b1d4 a23e
00000030: 382e 643f e655 81be a0de 7dbe 0e04 e2bc
00000040: e0c9 22bf 54df 9fbe c1a4 07bf 0e48 263d
00000050: d381 27bf ff32 9e3e 9767 7fbf 4dee 68bf
00000060: 82da 6b3e 3da8 a6be 055a 34bf f770 023f
00000070: 4b74 45bf ce5a 493c 4462 353f 2bd4 be3e
00000080: 48f9 e13e 3f7e 46bf 13b5 d63e 6fa4 d0bd
00000090: 03a9 eabe 3b67 933d 8a5e 63bf 3fdb c83d
000000a0: 08ad 8cbd 5bdd a3be 235e 2abf 66f1 26bf
000000b0: a5d9 1a3f b2bd c53d 0dc4 22bd 5e35 5a3e
000000c0: 7002 1c3e 4b56 1f3f 3417 80be d234 32bf
000000d0: 738d 643f fa5b 403f ecdc 01bf 2419 f33e
000000e0: 5f25 d23e 61d2 f13e 9d91 4dbf 09f6 743e
000000f0: c7f9 92be d47e efbe 8d52 07be 62ec b0be
00000100: 709a 02bf 38ec cebe 8b12 463f ae68 44be
00000110: 8814 043f 75d7 42bf a27d e53e 549c d33e
00000120: 728a b23e cfc3 293f e584 f3be aa00 0e3e
00000130: a127 853e 404c cabd 4776 87be bcfe 613e
00000140: fd9e febe 93c3 3a3f 4a07 013f 9839 553f
00000150: 9456 eebe 202a b23e e74d d73e 6111 f43e
00000160: 56dd 35be 7c39 763e 9aa1 45bd 12b3 44bf
00000170: f7d3 9dbe 0ead 8b3e 1335 6cba dd77 cbbd
00000180: 22a6 4ebe 1451 543f fa18 5abe 814b 723f
00000190: 3cdd 84be 065f 6bbf 9391 553f de45 68be
000001a0: cba4 b7be 7f92 75bd 2aca 703c caf2 92be
000001b0: 1482 71be 21c3 f6be 7043 ca3c 0dbe 58bf
000001c0: 819a b93c 38f1 cebe 706a 43bd 9eb3 353f
000001d0: c8c3 35bf 6250 c23e 8f68 d93c 16c0 68bf
000001e0: 78de b1be 50aa 213b 6f41 8bbe bcaf 8a3c
000001f0: c49d a8bd c3f4 243f 17a7 15bf 3081 2cbf
00000200: 68fe 423f d4bb 6abf 9499 a6be 623b 21bf
00000210: cb9f 2c3e b425 e43e 6c1b ba3e 7a2e 9ebe
00000220: b643 dbbe 8681 1b3f f6ad ec3e 8d50 11bf
00000230: fa72 c5be 0e37 7c3d bae7 b43d bbfb 3c3f
00000240: 6fda 44bf d698 2dbf 9cd8 b6be 8d30 efbe
00000250: aaf5 143f 64d1 1c3e 02b7 b53e aefe f8be
00000260: 4b8a 4c3f 3769 1d3f d869 d83e 7dd9 b93e
00000270: 83ca af3e 516d e93d 1e2f 6e3e 1a66 d23e
00000280: 6fef b13e b2cd 3abf f136 473f ccbb 3cbf
00000290: 2917 213f 8b69 173e 8495 dfbe ee27 923e
000002a0: 4fae 04be d99f 123f b9c7 4ebf 9e2c 173e
000002b0: 86c9 76bf 6ad0 eabe 5314 ccbe c307 46bf
000002c0: c871 9d3d c235 5fbe c0f3 153f 0111 8d3e
000002d0: 70df 643e 57ff 74bf 0038 0b3f ef7c d63e
000002e0: dbef 44bf 4f29 983e 632c 0d3f d761 f73d
000002f0: 6646 31bf bef4 0c3f c049 373f 76c1 26bf
00000300: 95da 123f fd92 333f 662a 98be 8b92 09bf
00000310: b881 623b be92 d9bd d30c 933e 0ca2 85be
00000320: 225c f3be ea57 ec3e 499a 843e c575 2bbf
00000330: 7579 7e3f b9fa 51bf 927a 143f fbf8 0fbf
00000340: f3cb 133f c036 d7bd bfd3 753e 85fe 06bf
00000350: 2bc9 84be 2dc6 443f 654f 5fbf 77e9 c93e
00000360: c31c 053f bd1a 743e 7703 853e e6a3 10bf
00000370: 6481 00be d8f9 d1be ac43 733e 57e3 a2be
00000380: 9674 2fbe b952 093f 3003 c9be 89fa 063f
00000390: d00c d1be 427c 85be eecd c9be 7075 9dbd
000003a0: abdc 323f 4258 623f e44a 4f3e ceea 55bf
000003b0: b5f5 043f 1904 48be af86 a93d 30ed 31be
000003c0: eb48 633f 7fe2 d63e 0eb0 e73e 8831 3a3f
000003d0: 12bb 84be 2278 163e 1d37 6e3d bcf3 43be
000003e0: e35d 973e dfc6 44bd 99b9 7e3e 7be8 01bf
000003f0: 8b24 703f 15a4 c63e b27b c4be 1603 1cbf
-0.27371472 0.38139558 0.6189155 0.05438569 -0.6849533 0.96223414 -0.20271349 -0.4109728
0.8950291 0.8197053 0.19960836 0.31802896 0.89133024 -0.25260848 -0.24791956 -0.027589824
-0.63589287 -0.31225073 -0.5298577 0.04059606 -0.6543247 0.30898282 -0.9976744 -0.9098862
0.23032573 -0.3255023 -0.7044986 0.5095362 -0.77130574 0.012289716 0.70853066 0.37271246
0.441355 -0.77536386 0.41935024 -0.10187613 -0.4583207 0.07197424 -0.8881613 0.09807443
-0.068689406 -0.32004818 -0.6654989 -0.65212095 0.6048835 0.09655322 -0.03973775 0.2130942
0.15235305 0.6224105 -0.25017703 -0.6961185 0.89278334 0.75140345 -0.50727725 0.47480118
0.41044137 0.4723082 -0.80300313 0.2392198 -0.2870619 -0.4677645 -0.13215084 -0.34555346
-0.510169 -0.40414596 0.77372044 -0.19180557 0.5159383 -0.7611001 0.44822413 0.41330206
0.3487125 0.66314405 -0.47562328 0.13867441 0.26006797 -0.09877825 -0.26457426 0.2206983
-0.49730673 0.7295467 0.5040175 0.83291006 -0.4655043 0.34797764 0.42051622 0.4766951
-0.17760214 0.24045366 -0.04824982 -0.7683574 -0.3082578 0.27280468 -0.0009010594 -0.099349715
-0.20180562 0.82936215 -0.2129859 0.9464646 -0.25950038 -0.9194187 0.83425254 -0.22682902
-0.35867915 -0.059954163 0.014696637 -0.28700858 -0.23584777 -0.48195747 0.02469036 -0.84664994
0.022656681 -0.4041841 -0.04770893 0.709772 -0.71001863 0.37951952 0.026539115 -0.909181
-0.34740043 0.0024668165 -0.2719836 0.0169295 -0.082332164 0.64435977 -0.58458084 -0.67384624
0.76169443 -0.9169285 -0.32539046 -0.62981236 0.16857831 0.44560015 0.36349046 -0.30894834
-0.42825097 0.6074451 0.46226472 -0.56763536 -0.38564283 0.06157594 0.08833261 0.7382161
-0.76895803 -0.67811334 -0.35712135 -0.4671673 0.58187354 0.15314251 0.35491186 -0.48631805
0.7989852 0.6148867 0.42268252 0.36298743 0.34334192 0.113978036 0.23260161 0.41093522
0.34752986 -0.72970116 0.7781821 -0.73724055 0.62925965 0.14786355 -0.4366876 0.2854609
-0.12957118 0.5727516 -0.807735 0.14763114 -0.9640125 -0.45862132 -0.39859256 -0.77355593
0.07687718 -0.2179785 0.5857506 0.27552035 0.2235086 -0.9570212 0.54382324 0.41892192
-0.7692849 0.29719016 0.55145854 0.12079208 -0.69248044 0.55060947 0.7159691 -0.6513895
0.5736478 0.7014616 -0.29719847 -0.5373923 0.0034562182 -0.10623692 0.28720722 -0.26100194
-0.4753123 0.46160823 0.2589896 -0.6697658 0.9940408 -0.820232 0.5799953 -0.5623929
0.57733077 -0.105084896 0.24006556 -0.52732116 -0.2593473 0.7686489 -0.8723052 0.39435932
0.5199701 0.23838325 0.25979206 -0.5650009 -0.12549359 -0.41010928 0.23756284 -0.31814072
-0.17134318 0.5364185 -0.39260244 0.52726036 -0.40830088 -0.26071364 -0.39414924 -0.07688415
0.6986796 0.8841592 0.20243412 -0.8356141 0.5193742 -0.19532813 0.08277642 -0.17375636
0.8878314 0.41969678 0.45251507 0.7273183 -0.25923973 0.14694265 0.05815803 -0.19135946
0.29563817 -0.04804122 0.24875487 -0.5074536 0.9380576 0.3879706 -0.38375622 -0.6094221

default_policy/fc_1/bias f4 [256]
00000000: 5916 323b 381b 29bb 9541 3ebb cafc 903a
00000010: 4d63 313b 3971 1c3b c5b5 aab8 4468 933b
00000020: 89e0 083b 2038 90b8 c9a7 80bb b3a5 403b
00000030: 34d7 21bb 5921 b43a d3e0 45bb 8c09 21bb
00000040: 8be9 65bb bb97 a23b afa1 e83a 5c52 04bb
00000050: 8918 26bb 0593 5fbb ceda 70bb 0b0b 043b
00000060: 284d 14bb 197c 71ba 20c6 e838 d834 8d3b
00000070: d560 0d3b fde4 5d3b 12ee 8d3b 4658 aebb
00000080: 4297 a8ba abdb 8d3b 28fc 6e3a 57f8 103b
00000090: 3575 8aba eed2 7abb 9900 63bb 6b81 56bb
000000a0: a730 94bb 3482 403b 29a1 c03b 4590 79ba
000000b0: 5111 97bb df5b fbba a6e5 bfbb 3287 89bb
000000c0: 11a1 d7ba 0cfb 2d3b 681b 0cbb 816c 67ba
000000d0: b9da 29bb e5b9 073b f1d6 79bb b649 2a3a
000000e0: ce5c b4ba 67b4 793b de53 8bbb 3cfd 213b
000000f0: b8fe 0a3b 9e5a 933a 236c 003b dc43 d9bb
00000100: a1ec 4dbb 16c7 8e3b e4ad 6c3b 4847 7e3b
00000110: 0ad3 5fbb 68d6 1d3b 81a4 25bb f491 3c3b
00000120: 890d 0c3b 6193 2fbb a175 5c3a f8a2 243b
00000130: dda6 9e38 28f9 3abb 75dc 413b 9b83 34bb
00000140: 97d4 5abb ac5d 3cbb 55cd 743b 2447 893b
00000150: 6dbd 82bb a6ab 1d3b 3efd c2ba 83bb 5cbb
00000160: 4a43 04bb 3737 71bb a5bc cd3b f266 093b
00000170: 767f 60bb 12df e3ba aee8 acba edd1 d539
00000180: 1f19 433b 5ac1 6c3b 3a36 f23a 8c4b 54b9
00000190: 16fc 2c3b 897b 873b 80a8 3ebb 9dcc 1fbb
000001a0: cf44 caba 385d 4dbb c631 393b df6f 6d3b
000001b0: 8c0d 9ebb 73cd 443b f0f4 4b3b fc0b 883b
000001c0: a1dd d43a a25d 7aba f8a6 223b 1699 2a3a
000001d0: 71f4 9dbb 4521 433b 239d 633b 7443 473b
000001e0: e4dc 50b9 0473 f2ba febb 2b3b 5798 25bb
000001f0: 1829 a3bb aad7 823b af87 423b 1514 fbba
00000200: 1258 66bb d4e8 30bb 1ba0 e5ba cb03 cc3b
00000210: b6f7 203b d020 ce3a b945 d039 358f 673b
00000220: 7e3b 273b 5c72 64bb 6b86 47bb 056a e039
00000230: a4c7 3dbb 761d c9ba 4646 b93a 4923 82ba
00000240: 337a 6d3b bc1b a7bb f9b9 2ebb 8cb2 9e3a
00000250: 2f6d 763a 0e4c 343a a30c 583b c587 283b
00000260: 14c1 cbbb 45eb 3f3b 970b ad3b 51b3 aebb
00000270: 3b64 353b 9c57 dfba 9b5a 3f3b 6e7b 5fbb
00000280: 6b36 6e3b 037c 953b b69e db39 6133 85bb
00000290: 8108 c03b bde4 87bb 4d83 3fbb d188 4c3b
000002a0: 6b81 923a 5311 d63a 3f45 1abb 41eb a33a
000002b0: fd45 e1ba 002b 0fbb 2dab b83a 5e0d 983b
000002c0: 4758 283b 7bdd 18bb 0ad2 363b 39d4 90bb
000002d0: dfda 473b 07a2 2b3b 9152 563b ee8f f7bb
000002e0: 2cef a63b 5c5c 2cbb 4676 a2bb af5f ed3a
000002f0: 69af 89ba 53f6 1dbb b284 c23a df62 c639
00000300: c1c3 35bb b883 b63a 788c 00bb cee2 64bb
00000310: 0279 b23b 877a 883b 3839 9b3b 4947 a0bb
00000320: 0c6f 91bb ce0c 2e3b dccc e4ba c96d 983b
00000330: 3a58 683b 4660 8bbb 918b 98bb 67ef 533b
00000340: 79d2 32bb 8f0e 79bb 20b3 313b e464 3c3b
00000350: f54f 4ebb daa3 303b fb72 863b 817b 4d3b
00000360: e722 16bb 4d97 40b9 01d1 9f3a c7d0 4fbb
00000370: 544b 7fbb 5193 97bb 4d8c 30bb 60d3 7c3b
00000380: fa62 09bb b16f 663b fa0f 6eb9 04d3 983b
00000390: b202 f13a 4eb5 133b 4f3c 863b a229 d9ba
000003a0: c162 2f39 d997 623b 141e 6a3a d5cd 5c3b
000003b0: ca0c f7ba d29c 68bb 8f74 133b 3e70 2dbb
000003c0: 13d5 69b9 c35a 133b ac50 91bb b53d 15bb
000003d0: 537f c8bb d04e 353b b6ea dbb9 d3db 603b
000003e0: 3fbf 40bb b99f 333a 326e 843b 5946 d7ba
000003f0: 6ab1 1bbb 5eaa 44bb 44e5 953b 34db d3ba
0.0027173965 -0.0025803577 -0.002903079 0.0011061665 0.0027067245 0.0023871197 -8.140089e-05 0.0044985134
0.0020885787 -6.876909e-05 -0.0039262515 0.002939564 -0.0024694921 0.0013742849 -0.003019382 -0.002457234
-0.003508183 0.0049619353 0.0017748381 -0.0020190692 -0.0025344214 -0.003411473 -0.0036751512 0.0020148184
-0.0022628997 -0.00092119124 0.00011099526 0.004309278 0.002157261 0.0033858411 0.0043313587 -0.0053205816
-0.0012862461 0.004329165 0.00091165537 0.0022120678 -0.0010563495 -0.0038272697 -0.0034637807 -0.0032730948
-0.0045224014 0.0029374482 0.005878587 -0.0009520094 -0.0046102186 -0.001917716 -0.0058562336 -0.0041970247
-0.00164512 0.002654734 -0.002137864 -0.0008828119 -0.0025917722 0.0020710167 -0.00381225 0.0006495969
-0.0013760568 0.0038101913 -0.004251941 0.002471759 0.0021208953 0.0011242216 0.0019595705 -0.006630404
-0.003142156 0.004357229 0.003611439 0.003879981 -0.0034152889 0.0024084095 -0.0025275054 0.0028773518
0.0021370372 -0.0026790726 0.0008409862 0.002512155 7.565108e-05 -0.0028529856 0.0029580866 -0.0027544263
-0.0033390874 -0.0028742356 0.0037353833 0.004189389 -0.0039898665 0.002405861 -0.0014876497 -0.0033681102
-0.002018171 -0.0036806592 0.0062785917 0.0020965901 -0.003425566 -0.0017385206 -0.0013191903 0.00040782933
0.0029769612 0.0036125989 0.0018479296 -0.00020246039 0.0026395372 0.0041345996 -0.0029092133 -0.0024383434
-0.0015431884 -0.003133608 0.0028258427 0.003623001 -0.0048233923 0.0030029684 0.0031121336 0.0041518193
0.0016240367 -0.00095506955 0.002481876 0.0006507797 -0.0048203995 0.002977447 0.0034731112 0.0030405195
-0.00019918714 -0.0018497412 0.0026204581 -0.0025267804 -0.004979264 0.0039929943 0.0029682925 -0.0019155765
-0.003514771 -0.0026994245 -0.0017519029 0.006226038 0.002456171 0.0015726332 0.000397248 0.003533316
0.0025517638 -0.0034858203 -0.003044511 0.000428036 -0.0028958106 -0.0015343863 0.0014135323 -0.0009928729
0.0036236166 -0.0050997417 -0.0026661141 0.0012107654 0.0009400425 0.0006877788 0.0032966516 0.002571569
-0.006218085 0.0029284519 0.0052809226 -0.005331435 0.002767815 -0.001703966 0.0029198292 -0.003410067
0.0036348354 0.0045619025 0.00041889184 -0.0040649627 0.0058603887 -0.004147141 -0.0029222548 0.0031209479
0.0011177486 0.0016332067 -0.002353981 0.0012506024 -0.0017186996 -0.0021845698 0.00140891 0.0046402654
0.0025687383 -0.0023325372 0.002789619 -0.00441983 0.0030495448 0.0026189105 0.0032703022 -0.0075549996
0.0050944295 -0.0026300168 -0.004957947 0.0018110181 -0.0010504547 -0.002410312 0.0014840572 0.00037839168
-0.0027735087 0.0013924753 -0.0019614976 -0.0034925225 0.005446554 0.004164997 0.0047370456 -0.0048913104
-0.0044382866 0.0026557925 -0.0017456072 0.0046517593 0.0035452978 -0.00425342 -0.0046553095 0.003233874
-0.0027286096 -0.0038003062 0.0027114823 0.002874666 -0.0031480764 0.0026953132 0.004103062 0.0031354132
-0.0022908987 -0.00018366911 0.0012193025 -0.0031710134 -0.0038954811 -0.004625716 -0.0026939095 0.0038578138
-0.0020963536 0.0035161788 -0.000227034 0.004663827 0.0018387644 0.0022538486 0.004096545 -0.0016568194
0.00016726089 0.0034575372 0.00089308736 0.0033692021 -0.0018848416 -0.0035493863 0.0022499894 -0.0026464607
-0.00022299988 0.0022484518 -0.0044346657 -0.0022772376 -0.006118694 0.0027665384 -0.00041945808 0.0034310713
-0.0029410867 0.00068521086 0.0040414566 -0.0016424163 -0.002375687 -0.0030008773 0.0045744497 -0.001616335

default_policy/fc_2/kernel f4 [256, 256]
00000000: 658c b4b7 d3f6 863c 12d6 03be df40 333d
00000010: 7cfc b73d ce32 c3bd e5d5 6bbc 893b 6cbd
00000020: 1a99 a53c e3bd 563d 72ac 4cbd f2dd e63d
00000030: f6dd 6cbc bfcf 673d e871 dc3c 037f 0e3e
00000040: fb76 fe3c 9551 273e 3394 613c 92e3 b2bd
00000050: 4226 2a3d 2dbc 89bb d5e0 3f3d 0a68 dcbd
00000060: beb9 6f3d 91cb 403d ea90 1a3d 4979 d7bd
00000070: fad5 b23d 5b73 9dbc dd43 04be 54a1 fc3d
00000080: 0a64 9ebd 086f 0fbe 0475 bcbd 0283 bebd
00000090: c001 80bd 7fe5 98bc 3f64 ad3a 62e0 03be
000000a0: fd6c e73c 4a4b 753d 5113 0dbb b298 51bd
000000b0: faba 89bd 4273 b1bd b365 babb 27f6 02be
000000c0: 0610 f2bb 5d91 54bd aa4f fd3c 4fa0 8f3c
000000d0: 9fec 0dbe 53cd 1abc ccc2 21bc 9e59 8ebd
000000e0: 5faa 803c 3ebb b7bd 60bb eebd 20a7 6b3d
000000f0: b0cd 813c 14c9 0bbd d69a cebc 735e 753c
00000100: 62e9 11bd 6a93 33bc 8cf2 abbc 1757 a43d
00000110: e5bf 99bc 589f cd3d 31d6 a3bd 4ea2 acbc
00000120: 8001 d6bd 2fa7 cabd c7d2 84ba 0f8d d43b
00000130: 6690 ee3d 89c0 d239 098f 63bc 5033 0e3c
00000140: 2fb8 13bd 66d3 b2bd b2db 35bc a69f 6fbd
00000150: efd0 6cba fbf5 e83a f49c 59bd c350 9f3d
00000160: e831 8d3c 5c5c 28bc 1513 ff3c 34de e1bd
00000170: 79a1 483d 328f c5bd f848 b83d 18cc a0bc
00000180: 922a c2bd 58f2 22be 50b0 e8bd efaf 1a3d
00000190: 3c6c 6b3d fed1 493d 804f d03c c7ad e6bc
000001a0: 86df 7e3c 6b94 5a3c a1d1 9b3d 6c81 03bc
000001b0: 9698 ddbd ffe7 4a3d 91e9 133b d087 e53a
000001c0: ac66 4f3d 08b2 303e 5f5d d13c 9bb0 a93c
000001d0: 7b76 08bd 0720 de3b 6557 6e3d eace 12be
000001e0: a2d5 c8bc 0295 8f3d ef0a 743d bbad 9c3c
000001f0: d7da 733d 4a9f 00bb 260e 2ebe 4740 5b3d
00000200: baeb 73bc 92a7 75bd a44d dbbc 0df9 343e
00000210: 1098 fd3c 2415 d43d 7b31 27be 4d9f 74bd
00000220: 8106 a83d 4448 c6bd a909 c63d e445 fc3c
00000230: da50 49bd 0aaf 013c 9632 8a3d d426 60bd
00000240: 582e 4cbd 24c6 86bd d821 e6bc 5fe5 383c
00000250: 2ec8 3f3d 96f7 16bc feba fe3d d5a5 983d
00000260: 0c38 093e 70fa 73bd ea3b aaba eaed 3bbd
00000270: 5c9c 17be d35e 943b 4385 3f3d 3f68 19be
00000280: 4ea5 ffbc bb19 98bd 101e 51bd b99c 363c
00000290: 487d 4e3b c0c8 e93d 1a5d bbba cb25 afbc
000002a0: d991 95bd f4d1 64bc c92c 2c3c 06de d63d
000002b0: 0755 2c3d 318c 6a3d de0c 08be 2623 053d
000002c0: 794d 6bbd 048e 673d 9051 27bc bf40 d63c
000002d0: 12a9 ffbc b592 013e 31c1 d43b ce40 3c3c
000002e0: ea9a 39bb ea32 b93a 9c29 2abc 439a 5bbc
000002f0: 57d0 d23c 5843 62b8 f124 9d3d b9e2 a7bc
00000300: 2fa6 333d 80d6 22bc fe1b 193d 46b4 14bd
00000310: 90e3 d2bc 0e1e 253d 1c46 f33c 78ec eabd
00000320: 8b1b 803d 0f25 193d ef16 7abc e660 e3bd
00000330: 7929 82bd d2d0 2ebd f5e0 86bd de18 25bd
00000340: f30a 31bc ef3a 70bb a62f 1c3c fd81 db3c
00000350: 31d8 823c 7436 30bc 079e 3cbd 403d 653c
00000360: d5ff 663d 68d8 12be 4a8e b6bd f7f2 823d
00000370: 2524 b63b 9097 c83c e64c 783c 0905 3f3d
00000380: ad10 bdbd f2d1 153d 399f 333d 4957 d3bc
00000390: 1695 b6bd a69a 133c ee7f 02be 5328 0cbb
000003a0: 1d54 e7bc 320b 523d d8df 9bbd 9a29 1abd
000003b0: c1a4 c53d ccdb 7c3b e340 67bc ac3e 8f3c
000003c0: fe68 2dbc 9b61 17bd e779 d8bd 4cf9 a93c
000003d0: 0b83 91bd 0dea 383d 1983 6b3d 8e53 123d
000003e0: 7fe6 323c 15d1 0a3d 4219 fdbd 12f4 393d
000003f0: 24e9 67bd 9a17 053d 436e 1c3d b0d6 913d
-2.1523048e-05 0.016475117 -0.1287463 0.043763038 0.089837044 -0.095311746 -0.014394258 -0.057673965
0.020214606 0.052427184 -0.049969144 0.112728015 -0.0144572165 0.056594606 0.026909783 0.13915639
0.031062594 0.16339715 0.013768244 -0.08734812 0.04154039 -0.0042033405 0.046845276 -0.107620314
0.058526747 0.047069136 0.037735857 -0.1052118 0.08732219 -0.019220045 -0.12916513 0.123354584
-0.07733925 -0.14007199 -0.092020065 -0.093023315 -0.06250334 -0.01866412 0.0013228728 -0.12878564
0.028250212 0.059886254 -0.0021526406 -0.051171012 -0.06725116 -0.08664562 -0.005688393 -0.12789212
-0.007387164 -0.05189644 0.030921776 0.017532496 -0.13859795 -0.009448367 -0.009873103 -0.06950687
0.01570624 -0.089712605 -0.11656833 0.05753243 0.01584515 -0.03412731 -0.025220316 0.014976132
-0.03562296 -0.010960439 -0.020989679 0.080244236 -0.01876826 0.10040158 -0.07999838 -0.021073487
-0.10449505 -0.09895169 -0.0010133617 0.006486542 0.116486356 0.0004019777 -0.013889083 0.008679226
-0.036064323 -0.08731727 -0.011099743 -0.058501862 -0.0009033819 0.0017773503 -0.053128198 0.07779076
0.017235711 -0.010275926 0.031137029 -0.1102871 0.048982117 -0.09646453 0.08998293 -0.01962857
-0.09480776 -0.1591276 -0.11361754 0.03776544 0.057476267 0.04927253 0.025428534 -0.028159035
0.015556222 0.01334105 0.07608343 -0.008026462 -0.10820119 0.049537655 0.0022569636 0.0017511789
0.050635025 0.17255414 0.025557218 0.020714095 -0.033316117 0.0067787203 0.058188815 -0.14336744
-0.02451593 0.07010843 0.05958074 0.01912581 0.059534874 -0.0019626194 -0.16997585 0.053528097
-0.014887745 -0.05997426 -0.02677042 0.1767313 0.030956298 0.10355595 -0.16327469 -0.059722234
0.082043655 -0.09681752 0.09669811 0.030795045 -0.04914937 0.007915268 0.0674793 -0.05472453
-0.049848884 -0.06580761 -0.02809231 0.011285155 0.046821766 -0.0092143025 0.1243801 0.07453505
0.13400286 -0.059565008 -0.0012987826 -0.04588119 -0.1480574 0.0045279055 0.046757948 -0.14981173
-0.031206753 -0.07426783 -0.05105406 0.011145764 0.003150778 0.11415243 -0.0014294714 -0.021380326
-0.07303209 -0.013966072 0.0105087245 0.10491566 0.042073276 0.057262603 -0.13286158 0.032504223
-0.05744693 0.05653192 -0.010212317 0.02615392 -0.031208549 0.1265362 0.006492757 0.01149006
-0.0028321096 0.0014129553 -0.010385897 -0.013403478 0.02573411 -5.3945318e-05 0.07673062 -0.020493852
0.043859657 -0.009938836 0.03738021 -0.036304735 -0.025743276 0.040311866 0.029696517 -0.11470884
0.062552534 0.037388857 -0.015264257 -0.11102466 -0.063555665 -0.042679615 -0.06585876 -0.04030692
-0.010805833 -0.003665622 0.009532845 0.026795382 0.015972229 -0.01075517 -0.046049144 0.013991654
0.056396324 -0.14340365 -0.08913858 0.06393998 0.005558508 0.024486333 0.015155053 0.04663566
-0.09231696 0.036577173 0.04385302 -0.025798457 -0.08915155 0.009009039 -0.12744114 -0.002138634
-0.02823835 0.051280208 -0.07611054 -0.03763733 0.09650565 0.0038583158 -0.014114591 0.017485939
-0.010584114 -0.03695832 -0.10570126 0.020748757 -0.071050726 0.045145083 0.05749807 0.035724215
0.010919212 0.033890802 -0.12358333 0.04539878 -0.056618825 0.03249321 0.03819109 0.071210265
